…
2024-03-06 10:02:09,272 [MainThread  ] [INFO ]         loglevel : INFO
2024-03-06 10:02:09,274 [MainThread  ] [INFO ]  Checking/Download features and labels locally
2024-03-06 10:02:09,274 [MainThread  ] [INFO ]  Pre-compute clips
2024-03-06 10:02:43,805 [MainThread  ] [INFO ]  Checking/Download features and labels locally
2024-03-06 10:02:43,805 [MainThread  ] [INFO ]  Pre-compute clips
2024-03-06 10:02:55,339 [MainThread  ] [INFO ]  Checking/Download features and labels locally
2024-03-06 10:02:55,339 [MainThread  ] [INFO ]  Checking/Download features and labels locally
2024-03-06 10:02:55,344 [MainThread  ] [INFO ]  ContextAwareModel(
  (conv_1): Conv2d(1, 128, kernel_size=(1, 512), stride=(1, 1))
  (conv_2): Conv2d(128, 32, kernel_size=(1, 1), stride=(1, 1))
  (pad_p_1): ZeroPad2d(padding=(0, 0, 5, 6), value=0.0)
  (pad_p_2): ZeroPad2d(padding=(0, 0, 13, 13), value=0.0)
  (pad_p_3): ZeroPad2d(padding=(0, 0, 19, 20), value=0.0)
  (pad_p_4): ZeroPad2d(padding=(0, 0, 39, 40), value=0.0)
  (conv_p_1): Conv2d(32, 8, kernel_size=(12, 1), stride=(1, 1))
  (conv_p_2): Conv2d(32, 16, kernel_size=(27, 1), stride=(1, 1))
  (conv_p_3): Conv2d(32, 32, kernel_size=(40, 1), stride=(1, 1))
  (conv_p_4): Conv2d(32, 64, kernel_size=(80, 1), stride=(1, 1))
  (pad_seg): ZeroPad2d(padding=(0, 0, 1, 1), value=0.0)
  (conv_seg): Conv2d(152, 272, kernel_size=(3, 1), stride=(1, 1))
  (batch_seg): BatchNorm2d(240, eps=0.001, momentum=0.01, affine=True, track_running_stats=True)
  (max_pool_spot): MaxPool2d(kernel_size=(3, 1), stride=(2, 1), padding=0, dilation=1, ceil_mode=False)
  (pad_spot_1): ZeroPad2d(padding=(0, 0, 1, 1), value=0.0)
  (conv_spot_1): Conv2d(289, 32, kernel_size=(3, 1), stride=(1, 1))
  (max_pool_spot_1): MaxPool2d(kernel_size=(3, 1), stride=(2, 1), padding=0, dilation=1, ceil_mode=False)
  (pad_spot_2): ZeroPad2d(padding=(0, 0, 1, 1), value=0.0)
  (conv_spot_2): Conv2d(32, 16, kernel_size=(3, 1), stride=(1, 1))
  (max_pool_spot_2): MaxPool2d(kernel_size=(3, 1), stride=(2, 1), padding=0, dilation=1, ceil_mode=False)
  (conv_conf): Conv2d(464, 30, kernel_size=(1, 1), stride=(1, 1))
  (conv_class): Conv2d(464, 255, kernel_size=(1, 1), stride=(1, 1))
  (softmax): Softmax(dim=-1)
)
2024-03-06 10:02:55,345 [MainThread  ] [INFO ]  Total number of parameters: 578245
2024-03-06 10:02:55,345 [MainThread  ] [INFO ]  start training
2024-03-06 10:13:09,166 [MainThread  ] [INFO ]  Validation performance at epoch 21 -> 0.2759039325144461
2024-03-06 10:13:15,624 [MainThread  ] [INFO ]  Test performance at epoch 21 -> 0.27855014270825484
…
